…
    "body": "<p>I am developing a Bi-LSTM model and want to add a attention layer to it. But I am not getting how to add it.</p>\n<p>My current code for the model is</p>\n<pre><code>model = Sequential()\nmodel.add(Embedding(max_words, 1152, input_length=max_len, weights=[embeddings]))\nmodel.add(BatchNormalization())\nmodel.add(Activation('tanh'))\nmodel.add(Dropout(0.5))\nmodel.add(Bidirectional(LSTM(32)))\nmodel.add(BatchNormalization())\nmodel.add(Activation('tanh'))\nmodel.add(Dropout(0.5))\nmodel.add(Dense(1, activation='sigmoid'))\nmodel.summary()\n</code></pre>\n<p>And the model summary is</p>\n<pre><code>Model: &quot;sequential_1&quot;\n_________________________________________________________________\nLayer (type)                 Output Shape              Param #   \n=================================================================\nembedding_1 (Embedding)      (None, 1152, 1152)        278396928 \n_________________________________________________________________\nbatch_normalization_1 (Batch (None, 1152, 1152)        4608      \n_________________________________________________________________\nactivation_1 (Activation)    (None, 1152, 1152)        0         \n_________________________________________________________________\ndropout_1 (Dropout)          (None, 1152, 1152)        0         \n_________________________________________________________________\nbidirectional_1 (Bidirection (None, 64)                303360    \n_________________________________________________________________\nbatch_normalization_2 (Batch (None, 64)                256       \n_________________________________________________________________\nactivation_2 (Activation)    (None, 64)                0         \n_________________________________________________________________\ndropout_2 (Dropout)          (None, 64)                0         \n_________________________________________________________________\ndense_1 (Dense)              (None, 1)                 65        \n=================================================================\nTotal params: 278,705,217\nTrainable params: 278,702,785\nNon-trainable params: 2,432\n</code></pre>\n",
    "score": 21,
    "creation_date": 1594967311,
    "view_count": 12303,
    "answer_count": 2,
    "tags": "python-3.x;tensorflow;machine-learning;keras;nlp"
  },
  {
    "question_id": 40542523,
    "title": "NLTK: corpus-level bleu vs sentence-level BLEU score",
…
t_informative_feature_for_class(tfidf_vect, clf, 5)\n</code></pre>\n\n<p>For this classfier:</p>\n\n<pre><code>X = tfidf_vect.fit_transform(df['content'].values)\ny = df['label'].values\n\n\nfrom sklearn import cross_validation\nX_train, X_test, y_train, y_test = cross_validation.train_test_split(X,\n                                                    y, test_size=0.33)\nclf = SVC(kernel='linear', C=1)\nclf.fit(X, y)\nprediction = clf.predict(X_test)\n</code></pre>\n\n<p>The problem is the output of <code>most_informative_feature_for_class</code>:</p>\n\n<pre><code>5 a_base_de_bien bastante   (0, 2451)   -0.210683496368\n  (0, 3533) -0.173621065386\n  (0, 8034) -0.135543062425\n  (0, 10346)    -0.173621065386\n  (0, 15231)    -0.154148294738\n  (0, 18261)    -0.158890483047\n  (0, 21083)    -0.297476572586\n  (0, 434)  -0.0596263855375\n  (0, 446)  -0.0753492277856\n  (0, 769)  -0.0753492277856\n  (0, 1118) -0.0753492277856\n  (0, 1439) -0.0753492277856\n  (0, 1605) -0.0753492277856\n  (0, 1755) -0.0637950312345\n  (0, 3504) -0.0753492277856\n  (0, 3511) -0.115802483001\n  (0, 4382) -0.0668983049212\n  (0, 5247) -0.315713152154\n  (0, 5396) -0.0753492277856\n  (0, 5753) -0.0716096348446\n  (0, 6507) -0.130661516772\n  (0, 7978) -0.0753492277856\n  (0, 8296) -0.144739048504\n  (0, 8740) -0.0753492277856\n  (0, 8906) -0.0753492277856\n  : :\n  (0, 23282)    0.418623443832\n  (0, 4100) 0.385906085143\n  (0, 15735)    0.207958503155\n  (0, 16620)    0.385906085143\n  (0, 19974)    0.0936828782325\n  (0, 20304)    0.385906085143\n  (0, 21721)    0.385906085143\n  (0, 22308)    0.301270427482\n  (0, 14903)    0.314164150621\n  (0, 16904)    0.0653764031957\n  (0, 20805)    0.0597723455204\n  (0, 21878)    0.403750815828\n  (0, 22582)    0.0226150073272\n  (0, 6532) 0.525138162099\n  (0, 6670) 0.525138162099\n  (0, 10341)    0.525138162099\n  (0, 13627)    0.278332617058\n  (0, 1600) 0.326774799211\n  (0, 2074) 0.310556919237\n  (0, 5262) 0.176400451433\n  (0, 6373) 0.290124806858\n  (0, 8593) 0.290124806858\n  (0, 12002)    0.282832270298\n  (0, 15008)    0.290124806858\n  (0, 19207)    0.326774799211\n</code></pre>\n\n<p>It is not returning the label nor the words. Why this is happening and how can I print the words and the labels?. Do you guys this is happening since I am using pandas to read the data?. Another thing I tried is the following, form this <a href=\"https://stackoverflow.com/questions/11116697/how-to-get-most-informative-features-for-scikit-learn-classifiers\">quest
…
 in texts]  # lower\ntexts = [''.join(c for c in x if c not in string.punctuation) for x in texts]  # remove punctuation\ntexts = [''.join(c for c in x if c not in '0123456789') for x in texts]  # remove numbers\ntexts = [' '.join(x.split()) for x in texts]  # trim extra whitespace\n\n\ndef tokenizer(text):\n    words = nltk.word_tokenize(text)\n    return words\n\n\ntfidf = TfidfVectorizer(tokenizer=tokenizer, stop_words='english', max_features=max_features)\nsparse_tfidf_texts = tfidf.fit_transform(texts)\nprint(sparse_tfidf_texts)\n</code></pre>\n<p>And the output is:</p>\n<blockquote>\n<p>(0, 630)  0.37172623140154337   (0, 160)  0.36805562944957004   (0,\n38)   0.3613966215413548   (0, 545)   0.2561101665717327   (0,\n326)  0.2645280991765623   (0, 967)   0.3277447602873963   (0,\n421)  0.3896274380321477   (0, 227)   0.28102915589024796   (0,\n323)  0.22032541100275282   (0, 922)  0.2709848154866997   (1,\n577)  0.4007895093299793   (1, 425)   0.5970064521899725   (1,\n943)  0.6310763941180291   (1, 878)   0.29102173465492637   (2,\n282)  0.1771481430848552   (2, 243)   0.5517018054305785   (2,\n955)  0.2920174942032025   (2, 138)   0.30143666813167863   (2,\n946)  0.2269933441326121   (2, 165)   0.3051095293405041   (2,\n268)  0.2820392223588522   (2, 780)   0.24119626642264894   (2,\n823)  0.1890454397278538   (2, 674)   0.256251970757827   (2,\n874)  0.19343834015314287   : :   (5569, 648) 0.24171652492226922<br />\n(5569, 123)   0.23011909339432202   (5569, 957)   0.24817919217662862<br />\n(5569, 549)   0.28583789844730134   (5569, 863)   0.3026729783085827<br />\n(5569, 844)   0.20228305447951195   (5569, 146)   0.2514415602877767<br />\n(5569, 595)   0.2463259875380789   (5569, 511)    0.3091904754885042<br />\n(5569, 230)   0.2872728684768659   (5569, 638)    0.34151390143548765<br />\n(5569, 83)    0.3464271621701711   (5570, 370)    0.4199910200421362<br />\n(5570, 46)    0.48234172093857797   (5570, 317)   0.4171646676697801<br />\n(5570, 281)   0.6456993475093024   (5572, 282)    0.25540827228532487<br />\n(5572, 385)   0.36945842040023935   (5572, 448)   0.25540827228532487<br />\n(5572, 931)   0.3031800542518209   (5572, 192)    0.29866989620926737<br />\n(5572, 303)   0.43990016711221736   (5572, 87)    0.45211284173737176<br />\n(5572, 332)   0.3924202767503492   (5573, 866)    1.0</p>\n</blockquote>\n<p>I would be more than happy if someone can explain about the output.</p>\n",
    "score": 13,
    "creation_date": 1529313566,
    "view_count": 12407,
    "answer_count": 1,
    "tags": "python;scikit-learn;nlp;tf-idf;tfidfvectorizer"
  },
  {
    "question_id": 2781752,
    "title": "Naive Bayesian for Topic detection using &quot;Bag of Words&quot; approach",
    "body":
…
    "title": "Don&#39;t understand the HashingVectorizer from sklearn",
    "body": "<p><strong>I'm using HashingVectorizer function from sklearn.feature_extraction.text  but I do not understand how it works.</strong></p>\n\n<p>My code</p>\n\n<pre><code>from sklearn.feature_extraction.text import HashingVectorizer\ncorpus = [ 'This is the first document.',\n'This document is the second document.',\n'And this is the third one.',\n'Is this the first document?']\nvectorizer = HashingVectorizer(n_features=2**3)\nX = vectorizer.fit_transform(corpus)\nprint(X)\n</code></pre>\n\n<p>My result</p>\n\n<pre><code>(0, 0)        -0.8944271909999159\n(0, 5)        0.4472135954999579\n(0, 6)        0.0\n(1, 0)        -0.8164965809277261\n(1, 3)        0.4082482904638631\n(1, 5)        0.4082482904638631\n(1, 6)        0.0\n(2, 4)        -0.7071067811865475\n(2, 5)        0.7071067811865475\n(2, 6)        0.0\n(3, 0)        -0.8944271909999159\n(3, 5)        0.4472135954999579\n(3, 6)        0.0\n</code></pre>\n\n<p>I read a lot of paper on the Hashing Trick, like this article <a href=\"https://medium.com/value-stream-design/introducing-one-of-the-best-hacks-in-machine-learning-the-hashing-trick-bf6a9c8af18f\" rel=\"noreferrer\">https://medium.com/value-stream-design/introducing-one-of-the-best-hacks-in-machine-learning-the-hashing-trick-bf6a9c8af18f</a> </p>\n\n<p>I understand this article but do not see the relationship with the result obtained above.</p>\n\n<p><strong>Can you explain me with simple example how work HashingVectorizer please</strong></p>\n",
…
    "body": "<p>I'm trying to use <a href=\"https://github.com/chartbeat-labs/textacy\" rel=\"noreferrer\">Textacy</a> to calculate the TF-IDF score for a single word across the standard corpus, but am a bit unclear about the result I am receiving.</p>\n\n<p>I was expecting a single float which represented the frequency of the word in the corpus. So why am I receiving a list (?) of 7 results?</p>\n\n<p>\"acculer\" is actually a French word, so was expecting a result of 0 from an English corpus.</p>\n\n<pre class=\"lang-py prettyprint-override\"><code>word = 'acculer'\nvectorizer = textacy.Vectorizer(tf_type='linear', apply_idf=True, idf_type='smooth')\ntf_idf = vectorizer.fit_transform(word)\nlogger.info(\"tf_idf:\")\nlogger.info(tfidf)\n</code></pre>\n\n<p>Output</p>\n\n<pre><code>tf_idf:\n(0, 0)  2.386294361119891\n(1, 1)  1.9808292530117262\n(2, 1)  1.9808292530117262\n(3, 5)  2.386294361119891\n(4, 3)  2.386294361119891\n(5, 2)  2.386294361119891\n(6, 4)  2.386294361119891\n</code></pre>\n\n<p>The second part of the question is how can I provide my own corpus to the TF-IDF function in Textacy, esp. one in a different language?</p>\n\n<p><strong>EDIT</strong></p>\n\n<p>As mentioned by @Vishal I have logged the ouput using this line:</p>\n\n<pre><code>logger.info(vectorizer.vocabulary_terms)\n</code></pre>\n\n<p>It seems the provided word <code>accule
…
ls), epochs=10, batch_size=16)\n# save the model\nmodel.save('model.h5')\n</code></pre>\n\n<p>Running the code:</p>\n\n<p>Running the example first prints a summary of the prepared training dataset.\nMax document length: 1380\nVocabulary size: 44277\n(1800, 1380)</p>\n\n<pre><code>____________________________________________________________________________________________________\nLayer (type)                     Output Shape          Param #     Connected to\n====================================================================================================\ninput_1 (InputLayer)             (None, 1380)          0\n____________________________________________________________________________________________________\ninput_2 (InputLayer)             (None, 1380)          0\n____________________________________________________________________________________________________\ninput_3 (InputLayer)             (None, 1380)          0\n____________________________________________________________________________________________________\nembedding_1 (Embedding)          (None, 1380, 100)     4427700     input_1[0][0]\n____________________________________________________________________________________________________\nembedding_2 (Embedding)          (None, 1380, 100)     4427700     input_2[0][0]\n____________________________________________________________________________________________________\nembedding_3 (Embedding)          (None, 1380, 100)     4427700     input_3[0][0]\n____________________________________________________________________________________________________\nconv1d_1 (Conv1D)                (None, 1377, 32)      12832       embedding_1[0][0]\n____________________________________________________________________________________________________\nconv1d_2 (Conv1D)                (None, 1375, 32)      19232       embedding_2[0][0]\n____________________________________________________________________________________________________\nconv1d_3 (Conv1D)                (None, 1373, 32)      25632       embedding_3[0][0]\n____________________________________________________________________________________________________\ndropout_1 (Dropout)              (None, 1377, 32)      0           conv1d_1[0][0]\n____________________________________________________________________________________________________\ndropout_2 (Dropout)              (None, 1375, 32)      0           conv1d_2[0][0]\n____________________________________________________________________________________________________\ndropout_3 (Dropout)              (None, 1373, 32)      0           conv1d_3[0][0]\n____________________________________________________________________________________________________\nmax_pooling1d_1 (MaxPooling1D)   (None, 688, 32)       0           dropout_1[0][0]\n____________________________________________________________________________________________________\nmax_pooling1d_2 (MaxPooling1D)   (None, 687, 32)       0           dropout_2[0][0]\n____________________________________________________________________________________________________\nmax_pooling1d_3 (MaxPooling1D)   (None, 686, 32)       0           dropout_3[0][0]\n____________________________________________________________________________________________________\nflatten_1 (Flatten)              (None, 22016)         0           max_pooling1d_1[0][0]\n____________________________________________________________________________________________________\nflatten_2 (Flatten)              (None, 21984)         0           max_pooling1d_2[0][0]\n____________________________________________________________________________________________________\nflatten_3 (Flatten)              (None, 21952)         0           max_pooling1d_3[0][0]\n____________________________________________________________________________________________________\nconcatenate_1 (Concatenate)      (None, 65952)         0           flatten_1[0][0]\n                                                                   flatten_2[0][0]\n                                                                   flatten_3[0][0]\n____________________________________________________________________________________________________\ndense_1 (Dense)                  (None, 10)            659530      concatenate_1[0][0]\n____________________________________________________________________________________________________\ndense_2 (Dense)                  (None, 1)             11          dense_1[0][0]\n====================================================================================================\nTotal params: 14,000,337\nTrainable params: 14,000,337\nNon-trainable params: 0\n____________________________________________________________________________________________________\n</code></pre>\n\n<p>And</p>\n\n<pre><code>Epoch 6/10\n1800/1800 [=========================
…
(gene_variation_embedding, initial_state=[l_dense, l_dense])\n\noutput_layer = Dense(9, activation='softmax')(rnn_layer)\n\nmodel = Model(inputs=[document_input,gene_variation_input], outputs=[output_layer])\n</code></pre>\n\n<p>model summary</p>\n\n<pre><code>____________________________________________________________________________________________________\nLayer (type)                     Output Shape          Param #     Connected to                     \n====================================================================================================\ninput_8 (InputLayer)             (32, 9)               0                                            \n____________________________________________________________________________________________________\ninput_7 (InputLayer)             (32, 4000)            0                                            \n____________________________________________________________________________________________________\nembedding_6 (Embedding)          multiple              73764400    input_7[0][0]                    \n                                                                   input_8[0][0]                    \n____________________________________________________________________________________________________\nconv1d_13 (Conv1D)               (32, 4000, 256)       102656      embedding_6[0][0]                \n____________________________________________________________________________________________________\nconv1d_14 (Conv1D)               (32, 4000, 256)       153856      embedding_6[0][0]                \n____________________________________________________________________________________________________\nconv1d_15 (Conv1D)               (32, 4000, 256)       205056      embedding_6[0][0]                \n____________________________________________________________________________________________________\nconv1d_16 (Conv1D)               (32, 4000, 256)       256256      embedding_6[0][0]                \n____________________________________________________________________________________________________\nmax_pooling1d_13 (MaxPooling1D)  (32, 2000, 256)       0           conv1d_13[0][0]                  \n____________________________________________________________________________________________________\nmax_pooling1d_14 (MaxPooling1D)  (32, 1333, 256)       0           conv1d_14[0][0]                  \n____________________________________________________________________________________________________\nmax_pooling1d_15 (MaxPooling1D)  (32, 1000, 256)       0           conv1d_15[0][0]                  \n____________________________________________________________________________________________________\nmax_pooling1d_16 (MaxPooling1D)  (32, 800, 256)        0           conv1d_16[0][0]                  \n____________________________________________________________________________________________________\nconcatenate_4 (Concatenate)      (32, 5133, 256)       0           max_pooling1d_13[0][0]           \n                                                                   max_pooling1d_14[0][0]           \n                                                                   max_pooling1d_15[0][0]           \n                                                                   max_pooling1d_16[0][0]           \n____________________________________________________________________________________________________\nflatten_4 (Flatten)              (32, 1314048)         0           concatenate_4[0][0]              \n____________________________________________________________________________________________________\ndense_6 (Dense)                  (32, 100)             131404900   flatten_4[0][0]                  \n____________________________________________________________________________________________________\nlstm_4 (LSTM)                    (32, 100)             120400      embedding_6[1][0]                \n                                                                   dense_6[0][0]                    \n                                                                   dense_6[0][0]                    \n____________________________________________________________________________________________________\ndense_7 (Dense)                  (32, 9)               909         lstm_4[0][0]                     \n====================================================================================================\nTotal params: 206,008,433\nTrainable params: 206,008,433\nNon-trainable params: 0\n____________________________________________________________________________________________________\n</code></pre>\n",
    "score": 5,
    "creation_date": 1505270685,
    "view_count": 4329,
…
el_glove.add(Dropout(0.5))\nmodel_glove.add(Conv1D(64, 5, activation='relu')) \nmodel_glove.add(MaxPooling1D(pool_size=4))\nmodel_glove.add(LSTM(100))\nmodel_glove.add(Dense(3, activation='softmax'))\nmodel_glove.compile(loss='categorical_crossentropy', optimizer='adam', metrics=['accuracy'])\nprint(model_glove.summary())\n</code></pre>\n\n<p>I get </p>\n\n<pre><code>_________________________________________________________________\nLayer (type)                 Output Shape              Param #   \n=================================================================\nembedding_7 (Embedding)      (None, 50, 100)           2000000   \n_________________________________________________________________\ndropout_7 (Dropout)          (None, 50, 100)           0         \n_________________________________________________________________\nconv1d_7 (Conv1D)            (None, 46, 64)            32064     \n_________________________________________________________________\nmax_pooling1d_7 (MaxPooling1 (None, 11, 64)            0         \n_________________________________________________________________\nlstm_7 (LSTM)                (None, 100)               66000     \n_________________________________________________________________\ndense_7 (Dense)              (None, 3)                 303       \n=================================================================\nTotal params: 2,098,367\nTrainable params: 98,367\nNon-trainable params: 2,000,000\n_________________________________________________________________\n</code></pre>\n\n<p>The input to the above architecture will be the training data</p>\n\n<pre><code>array([[    0,     0,     0, ...,  4867,    22,   340],\n       [    0,  
…
